results_experiments/2024-07-21_22-48-42/kd_model.pth (torch, 599862 bytes, 107 tensors)

weight f4 [9, 3, 3, 3]
0	0xbd84b7dd	-0.06480382
1	0x3d4b4662	0.04962767
2	0x3d5e062d	0.05420511
3	0xbe3a19e9	-0.18173946
4	0xbe2351dc	-0.15949196
5	0xbe1cd103	-0.15314107
6	0x3c6cf895	0.014463563
7	0x3dc9ea07	0.0985909
8	0x3dceda8e	0.1010028
9	0xbeec56c6	-0.46159953
10	0xbec0a87b	-0.3762854
11	0xbec9155e	-0.39274114
12	0xbf0d13cc	-0.5510833
13	0xbf0d03a5	-0.55083686
14	0xbf169507	-0.5882115
15	0xbebb3b34	-0.36568606
16	0xbe910828	-0.28326535
17	0xbea9029e	-0.3300981
18	0xbd612fc3	-0.05497719
19	0xbc473303	-0.012158158
20	0xbc9d9387	-0.019235386
21	0xbc96f1e5	-0.018425891
22	0xbd5dff65	-0.05419864
23	0xbdef3929	-0.11680824
24	0x3db19e1a	0.086727336
25	0x3e1bbc4c	0.15208548
26	0x3d9dca89	0.07704646
27	0xbb09681c	-0.0020966595
28	0x3935b982	0.00017330612
29	0x3aea8ed4	0.0017895349
30	0xbb099206	-0.0020991578
31	0xb962a420	-0.00021614181
32	0x3b4293ce	0.002969015
33	0xbab7b0c0	-0.0014014468
34	0x399c9cd8	0.00029871496
35	0x3b35e573	0.002775517
36	0x3933b90f	0.0001713971
37	0x3a063b19	0.00051205006
38	0x3a18e176	0.0005831936
39	0x39a6dea5	0.0003182787
40	0xb9a760c2	-0.00031924812
41	0x3a9836a1	0.001161296
42	0x39b5df3c	0.00034689333
43	0xb85f3fd6	-5.3226795e-05
44	0x3a93bf7d	0.0011272278
45	0x3aae44c3	0.0013295639
46	0x39c5a37d	0.00037696576
47	0xba9567ec	-0.0011398769
48	0x3aef5f9f	0.001826275
49	0xb92c1c62	-0.00016413772
50	0xba843353	-0.0010086097
51	0x3ad5dffb	0.0016317362
52	0xb950eeb4	-0.0001992535
53	0xba9b8029	-0.0011863756
54	0xbd7db5bb	-0.06194089
55	0x3f40b9f0	0.7528372
56	0x3f36909f	0.71314424
57	0x3eb8a237	0.3606126
58	0x3f934f4f	1.1508578
59	0x3f6ee44c	0.93317103
60	0x3e26d383	0.16291623
61	0x3e09e3f4	0.13465863
62	0x3d30536f	0.04304832
63	0xbfa17e4e	-1.261667
64	0xbe14d8dc	-0.1453585
65	0xbea42dd5	-0.32066217
66	0xbf9799b5	-1.1843783
67	0xbda39e6f	-0.07989203
68	0xbe60c129	-0.21948685
69	0xbf7c9054	-0.9865773
70	0xbf604b01	-0.87614447
71	0xbf81ab63	-1.0130428
72	0xbdfa757c	-0.122294396
73	0x3f900fd2	1.1254828
74	0x3f39da36	0.7259859
75	0xbe14970c	-0.14510745
76	0x3fa4ba36	1.2869327
77	0x3f509d2e	0.8148984
78	0xbe6bb3a2	-0.23017743
79	0x3e8eea6b	0.27913222
80	0xbe236bcb	-0.15959089
81	0x3ee6e5d6	0.45097226
82	0x3e62d1d9	0.22150363
83	0x3e82bf79	0.25536707
84	0x3dff5654	0.12467638
85	0xbd31bfad	-0.043395687
86	0x3d6e3005	0.058151264
87	0x3ee6e104	0.45093548
88	0x3e85b69f	0.2611589
89	0x3e820cb7	0.25400326
90	0xbc5523ee	-0.013009055
91	0xbe7c5ec1	-0.24645521
92	0xbe3dc7c5	-0.18533237
93	0xbe4f5761	-0.20248176
94	0xbeab5c3f	-0.33468816
95	0xbe92ba4b	-0.28657755
96	0x3e4582e5	0.19288214
97	0x3d9ac1d9	0.07556505
98	0x3bdd32ef	0.0067504565
99	0xbdb51bfa	-0.08843227
100	0xbe94c21b	-0.2905434
101	0xbe5d68be	-0.21621987
102	0xbe95de88	-0.2927134
103	0xbecd1901	-0.4005814
104	0xbea8a46a	-0.32937938
105	0x3d9d5b94	0.07683483
106	0xbd719d71	-0.05898804
107	0xbdb9ce05	-0.09072498
108	0xbffb5ec2	-1.9638293
109	0xbfc5ef1e	-1.5463598
110	0xbf9218a6	-1.1413772
111	0x3f2d8a67	0.6778931
112	0x4008c4be	2.1370082
113	0xbe9c6ccd	-0.30551758
114	0x3f1470d4	0.5798466
115	0x3f246f92	0.6423274
116	0x3f135e6c	0.5756595
117	0xbe0bc316	-0.13648638
118	0x3e1f1853	0.15536623
119	0xbe857f1d	-0.26073542
120	0x3f9d11f3	1.2271103
121	0x40150008	2.328127
122	0xbf5f471e	-0.8721789
123	0x3e47e477	0.19520746
124	0xbeff0ad8	-0.4981296
125	0xbf59140b	-0.8479621
126	0x3ef3d0a0	0.47620106
127	0x3f0b85a4	0.54500794
128	0xbd05e0f8	-0.03268525
129	0x3f355d31	0.70845324
130	0x3fba3483	1.4547275
131	0xbf91d740	-1.1393814
132	0xbdf39dd5	-0.118953384
133	0xbf335f83	-0.70067614
134	0xbf98be09	-1.1932994
135	0xbfcb184c	-1.586679
136	0xbfd8273a	-1.6886971
137	0xbf3bc03f	-0.7334022
138	0xbe899813	-0.26873836
139	0x3f7b372e	0.9813107
140	0x3fe5842c	1.7930961
141	0xbf239744	-0.6390269
142	0x3ecf8fe1	0.40539458
143	0x3f5612f6	0.8362268
144	0xbfc46486	-1.5343177
145	0xbf48a642	-0.7837869
146	0x3e9e92b9	0.30971316
147	0xbf10199c	-0.56289077
148	0x3fd02e22	1.6264079
149	0x4020c4ae	2.5120044
150	0xbfbd8319	-1.4805633
151	0x3e94877b	0.29009613
152	0x3f49e5bf	0.7886619
153	0xbf8a8f16	-1.0824916
154	0xbefea887	-0.4973795
155	0x3f83bf53	1.0292763
156	0xbf7369c5	-0.95083266
157	0x3f316bc8	0.69305086
158	0x400f5184	2.2393503
159	0xbff69c73	-1.9266495
160	0xbf153bd1	-0.582944
161	0x3f028576	0.50984895
162	0xbe7d515b	-0.24738066
163	0xbb7ce260	-0.0038587078
164	0x3d82faba	0.063954785
165	0x3d170394	0.036868647
166	0x3f20aca4	0.6276343
167	0x3f0c7029	0.5485864
168	0x3e39c207	0.18140422
169	0x3f6d9c24	0.92816377
170	0x3f51b3dd	0.81915075
171	0x3d349a73	0.044092607
172	0x3e21f47f	0.15815924
173	0x3eb941e1	0.36183074
174	0x3e1a390b	0.15060823
175	0x3d90d5b5	0.070720114
176	0x3e819051	0.25305417
177	0x3eb17960	0.34662914
178	0x3eb1a16d	0.3469347
179	0x3f13eb9d	0.5778139
180	0x3e1283ce	0.14308092
181	0x3ef35b86	0.47530764
182	0x3f083ce0	0.5321789
183	0x3e927d20	0.28611088
184	0x3e895982	0.26826102
185	0x3ed11823	0.40838727
186	0x3ed41b43	0.4142705
187	0x3e7564fe	0.23964307
188	0x3ef87bdf	0.48532006
189	0x3fc61290	1.5474415
190	0x3f7a9000	0.97875977
191	0x3f96cba2	1.1780894
192	0x3f8cef68	1.1010561
193	0x3e728b9a	0.23686066
194	0x3f60f88b	0.87879246
195	0xbe261d84	-0.16222197
196	0xbfacc294	-1.349688
197	0xbe97af6a	-0.29626018
198	0xbdca5ff4	-0.09881583
199	0xbf8bd108	-1.0923166
200	0xbea63084	-0.3245889
201	0xbebd44ff	-0.36966702
202	0xbfd5ff9c	-1.6718631
203	0xbee26f04	-0.44225323
204	0xbf1ea8ef	-0.6197652
205	0xc00a38ec	-2.1597242
206	0xbf16dad2	-0.58927643
207	0x3e69c0b2	0.22827414
208	0xbf1e10b3	-0.6174423
209	0x3d9fece0	0.07808852
210	0x3f0e0d8e	0.5548943
211	0xbf09a634	-0.5376923
212	0x3f0e35ce	0.5555085
213	0x3f5484c0	0.8301506
214	0xbf019a4b	-0.5062606
215	0x3f5b466e	0.8565434
216	0xbf5e8be4	-0.86932206
217	0xbf5d63b0	-0.86480236
218	0xbf8d0dba	-1.1019814
219	0xbf85830d	-1.0430619
220	0xbf4248e3	-0.75892466
221	0xbf4cd583	-0.80013293
222	0xbfca7be9	-1.5819064
223	0xbf9f41c8	-1.244195
224	0xbf9d8601	-1.230652
225	0xbe8cd6a8	-0.2750752
226	0x3ea0cc45	0.31405845
227	0xbe459fba	-0.19299212
228	0x3e163c43	0.14671426
229	0x3f8dcf93	1.1078972
230	0x3f32a5d3	0.6978428
231	0xbf43e369	-0.76518875
232	0x3ce74858	0.028232738
233	0xbec69bc6	-0.3879072
234	0x3e1d2028	0.15344298
235	0x3f98794e	1.1912019
236	0x3eeb6049	0.45971897
237	0x3fa635a4	1.298512
238	0x4031bf59	2.777304
239	0x4000eac6	2.0143294
240	0x3d6959ba	0.056970336
241	0x3fa6f413	1.3043236
242	0x3f1aceb2	0.6047164

weight f4 [9]
0	0xbf7a129c	-0.97684646
1	0x38efbaa8	0.000114311755
2	0x3fb0cfaf	1.381338
3	0x3d71c556	0.059026085
4	0x404e58c6	3.2241683
5	0xc080459a	-4.0084963
6	0x3d945635	0.07243005
7	0x3ff7fea9	1.9374591
8	0x4008088e	2.1255221

bias f4 [9]
0	0xbf294e94	-0.66135526
1	0xba89754b	-0.0010487227
2	0x3f967fe1	1.1757776
3	0xbf75d263	-0.9602415
4	0x403bd27c	2.934722
5	0x3ff98f66	1.9496887
6	0xbe95a54d	-0.29227677
7	0x3ec9f9f6	0.39448518
8	0x3f0b6758	0.54454565

running_mean f4 [9]
0	0x3f9be95f	1.2180594
1	0xbb0787fa	-0.0020680414
2	0xbf114c3f	-0.5675697
3	0x3e88df79	0.26732996
4	0xbf2382aa	-0.6387125
5	0xbec16bcb	-0.37777552
6	0xc01902a4	-2.3907862
7	0x3f68e63c	0.9097631
8	0xbf18ee39	-0.597385

running_var f4 [9]
0	0x41c8b331	25.087496
1	0x38be257f	9.06689e-05
2	0x41b27096	22.304974
3	0x407d10b6	3.954145
4	0x41f07542	30.057255
5	0x42c6ef11	99.46693
6	0x42cc187b	102.04781
7	0x41fa6ce5	31.303171
8	0x4277f919	61.99326

weight f4 [3, 9, 3, 3]
0	0xbe14a15e	-0.14514682
1	0xbe162a84	-0.14664656
2	0xbe70729a	-0.23481217
3	0xbdebbb3e	-0.11510323
4	0xbde59c68	-0.11211473
5	0xbe18f9a5	-0.14938982
6	0x3ca87b5e	0.020566639
7	0x3d44bf3a	0.04803393
8	0x3d8cb32e	0.06870113
9	0xba52540b	-0.00080233876
10	0x399a7f7b	0.0002946815
11	0x39a71c48	0.00031873793
12	0xba02db97	-0.0004991828
13	0x39bdcd2e	0.0003620176
14	0x39e2166b	0.00043122782
15	0xba0ffaaa	-0.0005492369
16	0x39a9042d	0.00032237303
17	0x392656b5	0.00015863295
18	0x3dd1cc96	0.102441
19	0xbe29f20e	-0.16596243
20	0xbe9d0e95	-0.30675188
21	0xbe534c17	-0.20634495
22	0xbe01d579	-0.1267909
23	0xbdf99cd1	-0.121881135
24	0xbdc4e0fb	-0.09613224
25	0x3ec4d6bd	0.38445082
26	0x3d3b4303	0.045718204
27	0x3d323f22	0.04351724
28	0x3e1fee3a	0.1561822
29	0x3a9db126	0.0012030944
30	0x3e024b17	0.12723957
31	0x3db0ef5f	0.086394064
32	0x3de22cd8	0.110437095
33	0x3cf15bfd	0.029462809
34	0x3dae7a74	0.0851945
35	0x3e3facc2	0.18718246
36	0x3bd04c0d	0.006356722
37	0xbf3dc572	-0.741294
38	0xbdb84226	-0.08996992
39	0xbe29d802	-0.16586307
40	0xbe6e8cc1	-0.23295881
41	0x3f4b837e	0.79497516
42	0x3f006c54	0.50165296
43	0x3e82708a	0.25476485
44	0x3f2ac7b3	0.66710967
45	0x3ee567da	0.44805795
46	0x3ec5b885	0.3861734
47	0x3e10abc2	0.1412802
48	0x3e6ec0b2	0.23315695
49	0xbeed747e	-0.4637794
50	0xbec2763b	-0.37980828
51	0x3e1e7006	0.15472421
52	0xbebb07c4	-0.36529362
53	0xbe49f6b4	-0.19723016
54	0x3d8ce121	0.068788774
55	0x3ecd93ce	0.4015183
56	0x3ef68c4d	0.48153916
57	0x3ea8192b	0.32831702
58	0x3ee45398	0.44595027
59	0x3f05e829	0.52307373
60	0x3f06fe14	0.5273144
61	0x3f0be503	0.5464632
62	0x3f0bc5e9	0.5459886
63	0x3e2f4473	0.17115955
64	0x3cf4577c	0.029826872
65	0xbe8a4297	-0.2700393
66	0x3e947a3c	0.28999507
67	0xbe7d5e14	-0.24742919
68	0xbee07dbc	-0.43845928
69	0x3e163505	0.14668663
70	0xbe0ec800	-0.13943481
71	0xbeaf91cd	-0.34290925
72	0xbe642c96	-0.22282633
73	0x3e55c3ff	0.20875548
74	0xbee147d5	-0.44000116
75	0xbd0b235f	-0.03396928
76	0x3e8701c8	0.26368546
77	0xbe8af092	-0.27136666
78	0x3eb00534	0.3437897
79	0x3ef4f1bb	0.47840676
80	0x3e55d6dd	0.20882745
81	0x3df1e99e	0.11812137
82	0x3e435579	0.19075574
83	0x3e9533ee	0.29141182
84	0xbe1fc223	-0.15601401
85	0xbe2de5f7	-0.16982256
86	0xbcff608f	-0.031173972
87	0xbd91479b	-0.07093736
88	0xbdc8c987	-0.09804063
89	0xbd276096	-0.040863596
90	0xb9ebf610	-0.00045006024
91	0xb9a0b0a1	-0.00030649177
92	0xba299fd6	-0.0006470656
93	0xba0d8ac1	-0.0005399399
94	0xb9869f5d	-0.00025677207
95	0xb985549e	-0.00025430782
96	0xb9c3cf50	-0.00037347758
97	0xb9cc4557	-0.00038961574
98	0xb9d1b5b6	-0.00039998972
99	0x3e35fc54	0.17772037
100	0xbba94022	-0.005165116
101	0x3e2680f3	0.16260128
102	0x3d7ff805	0.06249239
103	0xbed2b5e5	-0.411544
104	0x3ec8241a	0.39090043
105	0x3ea1bfcf	0.3159165
106	0xbf39ce7c	-0.72580695
107	0x3e8a2e83	0.2698861
108	0x3dedcba2	0.116111055
109	0x3d7d7320	0.06187737
110	0x3d869bc2	0.06572677
111	0x3e7cf5b8	0.2470311
112	0x3e8ede5a	0.27904016
113	0x3e820553	0.25394687
114	0x3e84deb0	0.25951147
115	0x3e957fbf	0.29199025
116	0x3e7df306	0.24799737
117	0xbea3710a	-0.3192218
118	0x3eef6bab	0.46761832
119	0xbecb9f66	-0.3977005
120	0x3ebac1df	0.36476037
121	0x3e279349	0.16364779
122	0xbfde5065	-1.7368284
123	0x3f23f751	0.6404925
124	0x3f342e41	0.7038308
125	0xbf0a3950	-0.539937
126	0xbf566ed4	-0.8376286
127	0xbe45d221	-0.19318439
128	0xbfafc72d	-1.3732659
129	0x3f656969	0.8961397
130	0x4009da27	2.15394
131	0xbeff879d	-0.49908152
132	0x3d209735	0.039206702
133	0x3fa1a9de	1.2629964
134	0xbf547cd7	-0.8300299
135	0xbc40aaf3	-0.0117595075
136	0xbe55d227	-0.20880948
137	0xbdbfadff	-0.09359359
138	0xbde4d756	-0.111738846
139	0xbe527332	-0.20551756
140	0xbe10f451	-0.141557
141	0xbc82895a	-0.015934635
142	0xbd1825a8	-0.037145287
143	0xbd7f66ed	-0.062354017
144	0xbe0279de	-0.12741801
145	0x3eeb56db	0.45964703
146	0x3d995017	0.07485979
147	0xbf3e375e	-0.74303234
148	0x3ee44891	0.44586614
149	0x3e9fc951	0.3120828
150	0xbf61c084	-0.8818438
151	0x3d88488c	0.06654462
152	0xbd16df9d	-0.036834348
153	0x3f4266fb	0.75938386
154	0x3cd7734a	0.026300091
155	0x3f794d56	0.9738363
156	0x3dd5a2da	0.10431452
157	0xbf890a38	-1.0706244
158	0x3e732383	0.23744015
159	0x3e162b95	0.14665063
160	0xbf96c1c8	-1.1777887
161	0xbe279dfa	-0.16368857
162	0xbe37a9c5	-0.17935856
163	0xbe31b494	-0.17354041
164	0xbe2146f4	-0.15749723
165	0x3e00f7ac	0.1259448
166	0x3d48271f	0.048865434
167	0x3c002bb0	0.007822916
168	0xbd84c6e8	-0.06483251
169	0xbdf2dc91	-0.11858476
170	0xbdc0646a	-0.093941525
171	0xb8ea4ef6	-0.00011172697
172	0xb6bc41bd	-5.6104896e-06
173	0xb9b6e437	-0.00034883778
174	0x39cdf14b	0.00039280424
175	0x3a2e3f8e	0.00066470436
176	0xb9265bb6	-0.00015865159
177	0x39a67666	0.000317502
178	0x38f92c3c	0.000118814845
179	0xb8f2deee	-0.00011580983
180	0x3cd9bf23	0.026580399
181	0xbdfce50c	-0.12348375
182	0x3db513ab	0.08841642
183	0xbdc39aff	-0.095510475
184	0xbe540083	-0.2070332
185	0x3da15bc7	0.07878833
186	0x3cd335a3	0.025782412
187	0xbe6debc2	-0.23234466
188	0x3e27bf99	0.16381682
189	0x3dd44562	0.10364796
190	0x3de1cb8f	0.11025154
191	0x3e23e72b	0.16006152
192	0xbe2c65fd	-0.1683578
193	0xbbe2e432	-0.0069241757
194	0x3daf5dee	0.085628375
195	0x3e5b821d	0.21436353
196	0x3e362f09	0.1779138
197	0x3e78a877	0.24283014
198	0x3e9d1efd	0.30687705
199	0x3f1ba400	0.6079712
200	0x3cd086c0	0.025454879
201	0xbf11d92e	-0.56972015
202	0xbf28f7e0	-0.6600323
203	0xbf87c09e	-1.0605657
204	0xbe8b060a	-0.27153045
205	0x3efaa0d7	0.48950836
206	0x3e1be06b	0.15222327
207	0x3db060d5	0.08612219
208	0xb8de8ec2	-0.000106123756
209	0xbe36d12b	-0.17853229
210	0xbe046254	-0.12928134
211	0xbe7619e2	-0.24033311
212	0xbeaf3d45	-0.34226432
213	0xbe9188af	-0.28424594
214	0xbe95b3c1	-0.29238704
215	0xbebe4fa3	-0.37170133
216	0xbcce0172	-0.025147174
217	0xbe78f221	-0.24311115
218	0x3c116bbe	0.008875785
219	0x3d8f184c	0.06987056
220	0x3dcec5b7	0.10096305
221	0x3de22aa2	0.11043288
222	0xbe388dbf	-0.18022822
223	0xbe941d0e	-0.28928417
224	0xbe74aabc	-0.23893255
225	0x3d6cb1a4	0.0577866
226	0xbdeb1de7	-0.11480313
227	0xbdb80cae	-0.089867935
228	0xbd89d1e0	-0.067294836
229	0xbd9d0e0b	-0.07668694
230	0xbde80243	-0.113285564
231	0x3cb4a70b	0.022052309
232	0xbe249ff2	-0.1607664
233	0xbd400f53	-0.046889614
234	0xbe8509a5	-0.2598392
235	0xbf34e8ba	-0.7066761
236	0xbf035ee8	-0.5131669
237	0xbe6d0ee3	-0.2315021
238	0xbf334c0c	-0.70037913
239	0xbee1f38c	-0.44131124
240	0x3da9d445	0.0829244
241	0xbee69d0f	-0.450417
242	0xbed663be	-0.41872972

weight f4 [3]
0	0xbf3c48f7	-0.73548836
1	0x40139c2d	2.3064072
2	0x3d490c8c	0.04908423

bias f4 [3]
0	0x3ed4e45d	0.41580477
1	0x3ef3ea5a	0.47639734
2	0xbea1996c	-0.31562364

running_mean f4 [3]
0	0x3fe8b03f	1.8178786
1	0xbede91d7	-0.43470642
2	0xc145e7e8	-12.369118

running_var f4 [3]
0	0x42318a0c	44.38481
1	0x43858acd	267.08438
2	0x426dfac5	59.494892

weight f4 [9, 3, 3, 3]
0	0xbc643051	-0.013927535
1	0x3eb2fc47	0.34958097
2	0x3d90023b	0.070316754
3	0xbdffa74b	-0.124830805
4	0x3e6296a1	0.22127773
5	0xbe71b7ca	-0.23605266
6	0xbdb4e8a7	-0.088334374
7	0x3e9ab8ad	0.3021902
8	0xbd294c69	-0.041332636
9	0x3ee89673	0.45427284
10	0x3ebe9152	0.37220246
11	0x3f1312ca	0.57450545
12	0x3e26b666	0.16280517
13	0x3e0bb2f4	0.13642484
14	0x3ec92123	0.39283094
15	0xbdf9164b	-0.12162455
16	0xbe01a7ce	-0.12661669
17	0x3eb16d24	0.3465358
18	0xbc74284b	-0.014902185
19	0x3cc6964c	0.024241589
20	0x3d510833	0.05103321
21	0x3c5a8bfd	0.01333904
22	0x3e7d91e3	0.24762683
23	0x3ee46f77	0.4461629
24	0x3deae322	0.114691034
25	0x3cab2cbf	0.02089536
26	0x3b231f44	0.0024890462
27	0x3da12a40	0.07869387
28	0xbdb77179	-0.0895719
29	0xbe0e54b2	-0.13899496
30	0xbd26f6a4	-0.04076256
31	0xbf1aa72f	-0.6041135
32	0x3e7232f8	0.23652256
33	0xbe85f948	-0.2616675
34	0xbe21b383	-0.15791135
35	0x3e596994	0.21231681
36	0xbf2f9e01	-0.6860047
37	0xbec6d948	-0.38837647
38	0x3d7fd803	0.062461864
39	0xbf1a79f5	-0.6034234
40	0xbfb38b0c	-1.4026809
41	0xbe6e3fa1	-0.2326646
42	0xbf0c7aad	-0.5487469
43	0xbf2ea581	-0.6822129
44	0xbf595e8b	-0.84909886
45	0x3ddfaec0	0.10922003
46	0xbd559259	-0.05214152
47	0x3d8c5d54	0.068537384
48	0xbea06ab4	-0.31331408
49	0xbe26b2ea	-0.16279188
50	0xbe9bf562	-0.3046065
51	0xbe50fe90	-0.20409608
52	0xbe39b556	-0.1813558
53	0xbe4542a8	-0.19263709
54	0x3d1a85a0	0.03772509
55	0xbccfef72	-0.025382731
56	0xbe890a94	-0.26765883
57	0x3dbb6785	0.09150604
58	0x3edbdd67	0.42942354
59	0x3d930e91	0.07180513
60	0x3da62be5	0.08113841
61	0x3ec8bd80	0.39207077
62	0xbdef17c7	-0.11674457
63	0xbde49c69	-0.11162645
64	0xbef06e43	-0.46959123
65	0xbf25d4cf	-0.64777845
66	0x3dfd99e1	0.12382866
67	0xbf0c13da	-0.5471779
68	0xbf2f0f5c	-0.6838281
69	0x3e23c588	0.15993321
70	0xbeb2a280	-0.34889603
71	0xbf1ba505	-0.60798675
72	0xbdb66d17	-0.08907526
73	0xbe28738f	-0.16450332
74	0xbe28bc52	-0.16478088
75	0xbb021dc6	-0.0019854172
76	0xbcd226e6	-0.025653314
77	0xbe2a0303	-0.16602711
78	0x3ea15c25	0.31515613
79	0x3f0fcee5	0.5617507
80	0x3f1f19c5	0.62148696
81	0xbead6564	-0.33866417
82	0xbebfac97	-0.37436363
83	0xbeeb3a51	-0.4594293
84	0xbeaddb96	-0.33956593
85	0xbeafd82e	-0.3434462
86	0xbeae7353	-0.3407236
87	0xbf04996a	-0.5179659
88	0xbf01e749	-0.5074354
89	0xbedb3b7e	-0.42818826
90	0xbe39ca80	-0.18143654
91	0xbe199ff9	-0.15002431
92	0xbed9c804	-0.42535412
93	0xbd0ad0c1	-0.03389049
94	0x3d9a1bfd	0.075248696
95	0xbe3d2af9	-0.18473424
96	0x3e0cd1cd	0.13751908
97	0x3e88b74e	0.2670235
98	0x3d39564f	0.045248326
99	0xbe8cc214	-0.2749182
100	0xbe41d187	-0.18927585
101	0xbdd6ab29	-0.10481865
102	0xbddd72da	-0.10812922
103	0xbdd6efa9	-0.1049493
104	0xbe268247	-0.16260634
105	0xbedebfce	-0.4350571
106	0xbeafab8d	-0.3431057
107	0xbe6863e3	-0.22694354
108	0x3d7b8c5f	0.061413165
109	0x3c8af4fa	0.016962517
110	0xbdc8481f	-0.09779381
111	0xbcd262e8	-0.025681928
112	0x3d79c78d	0.060981322
113	0xbe1d59aa	-0.15366235
114	0x3d5330fb	0.051560383
115	0xbd9fa43b	-0.07794996
116	0xbe5d4e10	-0.2161181
117	0xbf0b6c13	-0.54461783
118	0xbed8a463	-0.42312917
119	0xbef7997f	-0.48359296
120	0xbf3b93bc	-0.732723
121	0xbf06069b	-0.5235383
122	0xbe99d246	-0.30043238
123	0xbf315bbb	-0.69280595
124	0xbf0e4b7f	-0.5558395
125	0xbeff80d2	-0.4990297
126	0x3e41c340	0.18922138
127	0x3edf347c	0.4359473
128	0x3f169542	0.588215
129	0xbf04f828	-0.51941156
130	0xbf115520	-0.56770515
131	0xbee933f1	-0.4554744
132	0xbe87457c	-0.264202
133	0x3e442897	0.19156109
134	0x3ea371a5	0.3192264
135	0xbf1e3b14	-0.61808896
136	0x3edf7542	0.43644148
137	0x3e62310b	0.22089021
138	0xbf3aa3be	-0.729061
139	0x3ef4fb64	0.47848046
140	0x3e9d77a9	0.30755356
141	0xbef44150	-0.4770608
142	0x3efc203a	0.49243337
143	0x3eb609e5	0.35554424
144	0xbdc73d58	-0.09728497
145	0xbea11a9e	-0.3146562
146	0xbf567315	-0.8376935
147	0xbef5e6ef	-0.4802775
148	0x3e50a8ac	0.20376843
149	0xbf8df9f0	-1.10919
150	0xbf16a20f	-0.5884103
151	0xbf0d2ed4	-0.5514958
152	0xbebe8131	-0.3720794
153	0xbe0dad9f	-0.13835762
154	0xbec2c1ef	-0.38038585
155	0xbebc30d6	-0.3675601
156	0xbf0182f1	-0.50590426
157	0xbe89ed25	-0.2693874
158	0xbf092ab4	-0.53580785
159	0xbe9e5b16	-0.30928868
160	0xbeb11afd	-0.34590903
161	0xbe4c8f06	-0.19976434
162	0xbebff6c2	-0.3749295
163	0x3c938739	0.018008815
164	0x3d9fa75a	0.07795592
165	0xbe2296e8	-0.15877879
166	0x3e6fffc5	0.23437412
167	0xbd921459	-0.07132787
168	0x3df06bf4	0.117393404
169	0xbd640a0f	-0.055673655
170	0x3e17c78f	0.1482222
171	0x3e285658	0.16439188
172	0x3da3eaab	0.08003744
173	0xbebfd290	-0.37465334
174	0x3eda2f02	0.4261399
175	0x3e844617	0.25834724
176	0xbd700bde	-0.058605067
177	0x3ed55511	0.41666463
178	0x3ed9e663	0.42558584
179	0xbe093368	-0.13398516
180	0x3ecb5441	0.39712718
181	0x3efac25f	0.48976418
182	0x3ec58fc5	0.3858625
183	0x3dd483c3	0.10376694
184	0xbe0167f7	-0.12637316
185	0x3d66c5ea	0.05634109
186	0xbe83a892	-0.25714546
187	0x3e1d482b	0.15359561
188	0xbd8cac62	-0.06868817
189	0xbe9e9a74	-0.30977213
190	0xbf1f5db8	-0.6225238
191	0xbf26365c	-0.64926696
192	0x3eaa9c96	0.3332259
193	0x3eae5971	0.34052613
194	0xbe21021e	-0.15723464
195	0x3f1f7283	0.62284106
196	0xbe02ad68	-0.12761462
197	0xbee58859	-0.44830588
198	0xbf5689ee	-0.83804214
199	0xbf1e8f3e	-0.6193732
200	0xbf3e371f	-0.7430286
201	0x3d4a03a3	0.049319874
202	0x3f1e897e	0.61928546
203	0xbf03dbfe	-0.51507556
204	0x3f040757	0.515737
205	0x3f11ab4d	0.5690201
206	0xbf64ef33	-0.8942749
207	0xbd85ab3b	-0.065268
208	0x3a2df45c	0.00066358387
209	0xbe2cdaff	-0.16880415
210	0xbf1ac955	-0.6046346
211	0xbf257355	-0.6462911
212	0xbf301401	-0.68780524
213	0xbe936d89	-0.28794506
214	0xbe0d0acc	-0.1377365
215	0xbe203748	-0.15646088
216	0x3e581fdd	0.21105905
217	0x3e26d915	0.16293748
218	0xbbe90303	-0.0071109547
219	0xbd708a7b	-0.058725815
220	0x3eafc1ff	0.34327695
221	0x3e42db45	0.19028957
222	0x3c7c6efa	0.015407318
223	0x3f13f32a	0.57792914
224	0xbe1cc6f6	-0.15310273
225	0x3f0c0a6d	0.5470341
226	0xbf0939d7	-0.5360388
227	0x3ddbb91a	0.10728665
228	0x3ebc30b4	0.36755908
229	0xbf66b33c	-0.9011724
230	0xbe582983	-0.21109585
231	0x3b81c649	0.003960405
232	0xbf7a5163	-0.97780436
233	0xbeb84de9	-0.3599694
234	0xbe9ab47d	-0.30215827
235	0xbe67a0ed	-0.22619982
236	0xbe2793cd	-0.16364975
237	0x3e32d71b	0.17464869
238	0x3eba74b6	0.36417168
239	0x3d7c8908	0.06165412
240	0x3e04f8d1	0.12985541
241	0xbea3e8a1	-0.3201342
242	0xbe9c96df	-0.30583856

weight f4 [9]
0	0xbefe89b3	-0.4971443
1	0x40294b08	2.6452045
2	0x3ebd310f	0.3695149
3	0x3e830c8d	0.25595513
4	0x3d7c1a3b	0.061548453
5	0x4018d64e	2.3880801
6	0x3def6c7f	0.11690616
7	0x3fd432de	1.6578023
8	0x3f6aecca	0.9176756

bias f4 [9]
0	0xbf812c8c	-1.009172
1	0x3fe34f5e	1.7758596
2	0x3faf6fbc	1.3705974
3	0xbf36acc0	-0.71357346
4	0x3f3ce0cd	0.7378052
5	0xbe3fd876	-0.18734917
6	0xbf34bdd5	-0.7060216
7	0x3e6d8cfd	0.23198314
8	0x3ef922a9	0.48659256

running_mean f4 [9]
0	0x400e79b3	2.226178
1	0xc0aaf406	-5.342288
2	0xc01fbb2b	-2.4957988
3	0xc00e4019	-2.2226622
4	0xc091926a	-4.549123
5	0xc05c0095	-3.4375355
6	0x3f9055e9	1.1276218
7	0xc00cfaf8	-2.202818
8	0xbfa19e4e	-1.2626436

running_var f4 [9]
0	0x40a8e3b5	5.2777963
1	0x41da7049	27.304827
2	0x412e7ac8	10.904976
3	0x40173077	2.362333
4	0x41840506	16.502453
5	0x414f0cc1	12.940614
6	0x407718b7	3.8608835
7	0x4169e12f	14.617476
8	0x413eacd6	11.917196

weight f4 [9, 9, 3, 3]
0	0xbbe604dc	-0.0070196223
1	0x3d975a4e	0.07390271
2	0x3dc79e86	0.09747033
3	0xbc828875	-0.015934208
4	0xbdc82c2f	-0.09774052
5	0xbdf4bb89	-0.11949832
6	0x3e37534a	0.17902866
7	0x3e4ab5ec	0.1979596
8	0x3e429802	0.19003299
9	0xbc2348c9	-0.009966084
10	0xbdd2270b	-0.10261353
11	0x3e60c1f9	0.21948995
12	0xbdc6c40d	-0.097053625
13	0xbe3cc069	-0.18432774
14	0x3ec24654	0.3794428
15	0xbe64f9d4	-0.22360927
16	0xbe82d8e7	-0.25556108
17	0x3e364d32	0.17802885
18	0x3e5c383e	0.2150583
19	0xbee31b43	-0.44356737
20	0xbeac26a6	-0.33623236
21	0x3e4a5f8f	0.19763015
22	0xbd3ff409	-0.04686359
23	0x3e682004	0.22668463
24	0x3d59ab35	0.05314179
25	0x3ea0f3eb	0.31436095
26	0x3f26019b	0.648462
27	0x3e9f3292	0.3109327
28	0x3eb537be	0.3539409
29	0x3ea33978	0.31879783
30	0x3ddf8484	0.10913947
31	0x3e33fb15	0.17576249
32	0x3eacc77f	0.33745953
33	0x3e1c0a20	0.15238237
34	0x3c751efa	0.014960999
35	0x3e184ea8	0.14873755
36	0x3f1a93ef	0.6038198
37	0xbec10164	-0.37696373
38	0xbf0507c4	-0.51964974
39	0xbe70b517	-0.2350658
40	0xbebfc970	-0.37458372
41	0x3f26428b	0.64945287
42	0xbf090a78	-0.535316
43	0xbe62cf99	-0.22149505
44	0x3cde7bbe	0.027158614
45	0xbedd1a0d	-0.43183938
46	0xbd8a03be	-0.06738995
47	0xbe6064d4	-0.21913463
48	0xbc033db6	-0.0080103185
49	0xbedf3a3d	-0.4359912
50	0xbefb969c	-0.49138343
51	0xbf048e4a	-0.51779616
52	0xbf2ce2b2	-0.6753341
53	0xbdcd2b02	-0.10017969
54	0xbdbb8c59	-0.091576286
55	0xbe09ef7b	-0.13470261
56	0xbe49e9bb	-0.19718067
57	0xbe2a3a69	-0.16623844
58	0xbe42dfc6	-0.19030675
59	0xbd9ddf1c	-0.0770857
60	0xbe0bd4a7	-0.13655339
61	0xbe7a15fd	-0.2442245
62	0xbe567b53	-0.20945482
63	0x3dd84e62	0.10561825
64	0xbc8e55ae	-0.01737484
65	0xbec2b056	-0.3802516
66	0x3ee5a770	0.44854307
67	0xbcf5e1d8	-0.030014917
68	0xbd950315	-0.072759785
69	0xbda0c889	-0.07850749
70	0x3decfe64	0.11571959
71	0x3f07739a	0.5291077
72	0xbe5317e5	-0.20614584
73	0xbd1c77d6	-0.038200222
74	0x3eb97fb3	0.3623024
75	0xbea0a327	-0.31374475
76	0xbcd17f5f	-0.02557343
77	0x3ed7dd76	0.4216115
78	0xbe911abd	-0.28340712
79	0x3dc09862	0.09404065
80	0x3ee39f34	0.444574
81	0x3c1b9976	0.009497037
82	0x3c51e5f8	0.0128111765
83	0x3cd7f2cf	0.026360897
84	0xbe082da0	-0.13298655
85	0xbe210ae9	-0.15726818
86	0xbdf41396	-0.11917798
87	0x3dfbd2fc	0.122961015
88	0x3d4de8e5	0.050270934
89	0xbd6b43b3	-0.05743761
90	0xbe82823e	-0.25489992
91	0xbe52c093	-0.20581274
92	0x3e248468	0.16066134
93	0xbe35ce73	-0.17754535
94	0xbe2c6b29	-0.16837753
95	0x3b7d163e	0.0038617994
96	0xbecb2f40	-0.39684486
97	0xbeb0d550	-0.34537745
98	0xbeb70b2c	-0.3575071
99	0xbeabd307	-0.3355944
100	0xbceb3fbd	-0.028716916
101	0x3d402f95	0.046920378
102	0x3da14f89	0.07876498
103	0xbdf38095	-0.118897595
104	0xbe63e7ec	-0.2225644
105	0x3e0d073f	0.13772295
106	0xbe34c0a9	-0.17651619
107	0xbeb46884	-0.3523599
108	0x3a82c3d5	0.0009976575
109	0xbe4407da	-0.1914362
110	0xbdf9a81a	-0.12190266
111	0xbd075673	-0.03304143
112	0xbe36b576	-0.1784266
113	0xbe31dced	-0.17369433
114	0xbd5004a9	-0.050785694
115	0xbde5a8af	-0.112138145
116	0xbe0910a9	-0.13385262
117	0xbd4db2f6	-0.0502195
118	0x3dc4c1d6	0.09607284
119	0xbe0a4c71	-0.13505723
120	0x3f071c74	0.5277779
121	0x3ed2d35c	0.4117688
122	0xbed4673d	-0.41485015
123	0x3eb9daef	0.36299846
124	0x3eee5e35	0.4655625
125	0x3e9f52ff	0.31118008
126	0xbcc528c3	-0.024067288
127	0x3e2796c8	0.16366112
128	0xbdfe61c1	-0.12420989
129	0xbda4c02f	-0.080444686
130	0x3f19ff1d	0.60154897
131	0x3e02765c	0.12740463
132	0xbe5563fe	-0.20838925
133	0x3e390661	0.1806884
134	0xbe28d7da	-0.16488591
135	0x3e2b1129	0.16705765
136	0xbbff0dca	-0.007783626
137	0xbdf56a67	-0.11983185
138	0x3e23da05	0.16001137
139	0x3e330d22	0.17485479
140	0x3d6d84f0	0.057988107
141	0x3db26f44	0.087126285
142	0x3e093d15	0.13402207
143	0x3d9dc804	0.077041656
144	0xbc920b60	-0.01782769
145	0x3dcfd85c	0.10148689
146	0x3e931dd9	0.2873371
147	0xbc8412c9	-0.016122239
148	0x3e00494d	0.12527962
149	0x3e091d4f	0.13390087
150	0x3e98d6bc	0.2985133
151	0x3e6f5b3e	0.2337465
152	0x3e7c3aeb	0.2463185
153	0xbc69a937	-0.014261535
154	0xbd87c7c0	-0.06629896
155	0x3e8850e3	0.26624212
156	0x3e26b0ca	0.16278377
157	0xbe853b98	-0.2602203
158	0xbd98b163	-0.07455709
159	0x3eb11b67	0.3459122
160	0xbe3733d4	-0.17890865
161	0xbe736d74	-0.23772222
162	0xbc2c6123	-0.010521206
163	0xbcfed1d2	-0.03110591
164	0x3c82094d	0.015873576
165	0xbe197f56	-0.14989981
166	0xbe1d9d4d	-0.15392037
167	0xbc6c4f14	-0.014423151
168	0x3b640407	0.003479244
169	0xbdb315ca	-0.0874439
170	0xbd5b7801	-0.05358124
171	0xbe2db1f3	-0.16962413
172	0xbe7377bc	-0.23776144
173	0xbe14e98f	-0.1454222
174	0xbd297c2f	-0.041378196
175	0xbdd440ef	-0.103639476
176	0x3d0e2d7e	0.034711353
177	0xbd5d5be8	-0.054042727
178	0xbd0eea79	-0.03489158
179	0x3cd5c326	0.02609403
180	0xbe21db16	-0.15806231
181	0xbdd4e95e	-0.10396074
182	0x3e0f0ee4	0.13970524
183	0x3cc03123	0.02346093
184	0xbe7ac479	-0.24489011
185	0xbdc70882	-0.097184196
186	0x3dd987e3	0.106216215
187	0xbe80acf3	-0.2513195
188	0xbe9a8d54	-0.3018595
189	0x3e9712bd	0.29506484
190	0x3e8ee9df	0.27912804
191	0x3e0a6bb4	0.13517648
192	0x3e5f0a59	0.21781291
193	0x3eb76ad4	0.3582369
194	0x3ea14384	0.31496823
195	0x3e1a5040	0.15069675
196	0x3e53a67a	0.20668975
197	0x3e9ce668	0.30644536
198	0x3e30f104	0.1727944
199	0x3ddb2bc4	0.10701707
200	0xbd364468	-0.04449883
201	0x3f17b9e7	0.5926804
202	0x3eb3a2c1	0.3508511
203	0xbe2be9ef	-0.16788457
204	0x3dd6f630	0.10496175
205	0x3e9c4c72	0.30527073
206	0x3e8f6553	0.28006992
207	0x3e892f7a	0.26794034
208	0x3e2e2aa5	0.17008455
209	0x3e0a0bf2	0.1348112
210	0x3ea44727	0.32085535
211	0x3e9ac0c2	0.30225188
212	0x3e415b54	0.18882495
213	0x3e8dfe61	0.27733138
214	0x3e77b3cb	0.2418968
215	0x3d9ce28c	0.07660398
216	0x3d95dcfd	0.07317541
217	0x3ce760af	0.028244345
218	0x3da47915	0.08030907
219	0x3e20ab00	0.15690231
220	0x3e0737a4	0.13204819
221	0x3ddf94a6	0.10917024
222	0x3dd0e836	0.10200541
223	0x3dae9e6d	0.08526311
224	0x3de01592	0.10941614
225	0xbd9b877a	-0.075941995
226	0x3dc3ae7f	0.09554767
227	0x3ec345eb	0.3813928
228	0xbd693a5a	-0.056940414
229	0xbe265a66	-0.16245422
230	0x3de70131	0.11279524
231	0x3caeef5d	0.021354372
232	0xbe7dc83b	-0.24783413
233	0xbdaf0f91	-0.08547891
234	0x3e139984	0.1441403
235	0xbd2d22c3	-0.04226948
236	0xbd9a993e	-0.0754876
237	0x3e30be74	0.17260152
238	0xbe3ffbd8	-0.18748415
239	0xbdc78d64	-0.09743765
240	0x3ebdfe6f	0.3710818
241	0x3e20c9fb	0.1570205
242	0x3d763a72	0.06011433
243	0xbbb1afba	-0.0054225596
244	0xba7798aa	-0.0009445051
245	0x3c850a37	0.016240222
246	0xbdf52310	-0.11969578
247	0xbdeb4bae	-0.11489044
248	0xbdb9e25d	-0.090763785
249	0xbe9f6859	-0.31134298
250	0xbe8af2c9	-0.27138355
251	0xbe51e970	-0.20499206
252	0xbf0670ed	-0.5251606
253	0xbdd427cb	-0.103591524
254	0xbe5cdbe3	-0.21568255
255	0xbe5264b4	-0.20546228

weight f4 [9]
0	0xbf913cfa	-1.1346734
1	0xbfb0c02a	-1.3808644
2	0x3f8543f7	1.0411366
3	0x3ea32199	0.3186157
4	0xbf1dd800	-0.61657715
5	0xbdd1f37c	-0.10251519
6	0x3f4a2f59	0.78978497
7	0x3fdd3173	1.7280716
8	0xbdc1933a	-0.09451909

bias f4 [9]
0	0x3f2dbc0d	0.6786507
1	0x3ef9a19a	0.48756105
2	0xbdd920c2	-0.10601951
3	0x3fd14d91	1.6351796
4	0xbe5934f6	-0.21211609
5	0xbf0cc79f	-0.549921
6	0x3e50d99e	0.20395514
7	0x3f609872	0.87732613
8	0xbf4b27a1	-0.79357344

running_mean f4 [9]
0	0xc0fb2601	-7.848389
1	0x40686008	3.6308613
2	0x41132a9d	9.197904
3	0x40710b3d	3.766311
4	0x41a2e540	20.361938
5	0xbf01e08f	-0.50733274
6	0x415f2172	13.945665
7	0xbfcfabba	-1.6224282
8	0xc1926ee1	-18.30414

running_var f4 [9]
0	0x4219b917	38.43075
1	0x4205ec6c	33.48088
2	0x41d3936e	26.446987
3	0x428df16a	70.97151
4	0x428481fb	66.25387
5	0x420eb2c5	35.67458
6	0x427d7b21	63.370243
7	0x42766269	61.596104
8	0x42bddcd5	94.93131

weight f4 [9, 9, 3, 3]
0	0x3d914bd8	0.07094544
1	0xbd155eca	-0.03646735
2	0x3d7713fd	0.060321797
3	0x3dc3c019	0.09558124
4	0xbabfdc54	-0.0014637806
5	0x3c28f5c3	0.0103125
6	0x3deff7ad	0.11717162
7	0x3ce4444b	0.027864596
8	0x3d919e91	0.07110322
9	0x3df48db7	0.119410925
10	0x3d73fc76	0.059566937
11	0x3d4d8da4	0.050183907
12	0x3d8482c2	0.064702526
13	0x3e1d3227	0.15351163
14	0xbd6861b3	-0.0567338
15	0x3d4d1687	0.050070312
16	0x3e2d646d	0.1693284
17	0x3d865f9f	0.06561207
18	0x3ca83783	0.020534283
19	0x3d7d64f9	0.061863873
20	0xbc8c8fbc	-0.017158382
21	0x3bfe79d2	0.007765987
22	0x3d802220	0.06256509
23	0xbdd1699e	-0.10225223
24	0xbdaf54ed	-0.0856112
25	0x3df8c78c	0.121474355
26	0xbd8a909b	-0.067658626
27	0x3d5ce11b	0.053925615
28	0x3d8f9a23	0.07011821
29	0xbd0ef0cb	-0.034897607
30	0xbd4b73a7	-0.04967084
31	0xbda6fde0	-0.081538916
32	0xbe2332d7	-0.15937363
33	0x3de19f88	0.11016756
34	0x3e61c396	0.22047266
35	0x3ce343b4	0.027742244
36	0x3e30e55d	0.17274995
37	0x3e0587ab	0.13040034
38	0x3d867d1a	0.0656683
39	0x3de8d4ac	0.11368689
40	0x3da5cf21	0.08096147
41	0x3d3ed8ee	0.0465936
42	0x3e16f283	0.14740948
43	0x3cc67247	0.024224414
44	0xbc097446	-0.008389538
45	0x3caf36fe	0.021388527
46	0x3dbad38c	0.091223806
47	0x3d084c48	0.033275872
48	0x3d8d3d06	0.06896405
49	0x3df98197	0.121829204
50	0x3e257f68	0.16161883
51	0xbd2b0307	-0.041750934
52	0xbd34ceb8	-0.044142455
53	0xbd4b6ce0	-0.04966438
54	0x3cd12adb	0.02553313
55	0xbde1605e	-0.11004709
56	0xbc22c7db	-0.009935345
57	0xbdf607cc	-0.12013206
58	0xbe0b52c8	-0.13605797
59	0xbd89bc53	-0.06725373
60	0xbde2d951	-0.11076606
61	0xbd823a9c	-0.06358835
62	0x3db5d620	0.08878732
63	0x3e293b86	0.16526613
64	0x3e7e9940	0.24863148
65	0x3e0c8108	0.13721097
66	0x3e587249	0.21137346
67	0x3d8901dc	0.06689808
68	0x3dff72e7	0.12473088
69	0x3d1b0865	0.037849803
70	0x3da485d6	0.0803334
71	0x3d81da26	0.06340437
72	0xbdb40498	-0.08789939
73	0x3ddd774d	0.108137704
74	0xbd6e0ce3	-0.05811776
75	0x3ccc3ddd	0.024931842
76	0x3e050d09	0.12993254
77	0xbe213b47	-0.15745269
78	0x3cdebd61	0.027189912
79	0x3d58ed57	0.05296072
80	0xbda8505b	-0.082184516
81	0xbe1e3c8c	-0.15452784
82	0xbee40b3a	-0.44539815
83	0xbc55487c	-0.01301777
84	0xbf314984	-0.692528
85	0xbf1db5ec	-0.61605716
86	0x3ee5eea6	0.44908637
87	0xbe05254b	-0.13002507
88	0xbdf1247e	-0.117745385
89	0x3f1f2191	0.62160593
90	0x3e1d6ac7	0.15372764
91	0x3e914dad	0.28379574
92	0xbd16832d	-0.036746193
93	0x3e9876a4	0.29778016
94	0x3ec9c59c	0.39408576
95	0xbec60721	-0.38677314
96	0x3e3ec7e4	0.1863094
97	0x3d6608a9	0.056160603
98	0xbf1daf9b	-0.6159608
99	0x3e53be66	0.206781
100	0x3e30b9c0	0.17258358
101	0xbe9b19c0	-0.30293083
102	0xbd8856d5	-0.06657187
103	0xbe1188d4	-0.14212352
104	0xbe49f501	-0.19722368
105	0xbe6c0232	-0.23047712
106	0xbeb80546	-0.35941523
107	0xbe4baf6c	-0.19891137
108	0x3ea721be	0.3264293
109	0xbf1ecc18	-0.6203017
110	0xbe9f443a	-0.3110674
111	0xbe03d8fb	-0.1287574
112	0xbf828452	-1.0196631
113	0xbee92c90	-0.4554181
114	0x3dbe6da3	0.09298255
115	0xbebadc4a	-0.36496192
116	0x3dc15fa5	0.09442071
117	0x3d968d60	0.07351184
118	0xbd6752ef	-0.056475576
119	0x3e5276a8	0.20553076
120	0x3cc14a3b	0.023594966
121	0xbd5f1212	-0.054460593
122	0x3e3dbc85	0.18528946
123	0x3d23eaee	0.04001897
124	0x3afc5b37	0.0019253258
125	0x3c0d21fd	0.0086140605
126	0x3df47d6f	0.11937987
127	0xbc86a7c2	-0.016437415
128	0x3daf6706	0.08564572
129	0x3e2d861f	0.16945694
130	0x3db51b5c	0.08843109
131	0x3e1fea81	0.156168
132	0x3d0c7eb1	0.03430051
133	0x3cc68a05	0.024235735
134	0x3c8d53d5	0.017251888
135	0x3dd44f62	0.103667036
136	0xbeb3fe73	-0.35155067
137	0xbe44d867	-0.19223176
138	0xbe4bad0c	-0.19890231
139	0xbeb661b2	-0.3562141
140	0x3de8e153	0.11371102
141	0x3d215f76	0.03939768
142	0x3e411808	0.18856823
143	0x3f1a64a0	0.6030979
144	0xbeef0814	-0.4668585
145	0xbe61b66a	-0.22042242
146	0x3e9a8353	0.30178317
147	0xbd9cdeea	-0.07659705
148	0x3f9dfa64	1.2342038
149	0x3f14ab69	0.5807405
150	0x3b875066	0.0041294573
151	0x3f1c8414	0.61139035
152	0xbece2af7	-0.40267155
153	0x3e082203	0.13294224
154	0x3e429eec	0.19005936
155	0x3e21c9be	0.15799615
156	0x3dae2e06	0.08504872
157	0x3e36f288	0.17865956
158	0x3ed025d9	0.40653875
159	0xbdb99ec7	-0.090634875
160	0x3e80280f	0.25030562
161	0x3ebc8500	0.3682022
162	0x3f102abc	0.5631521
163	0xbd3e5e00	-0.046476364
164	0xbf3a405c	-0.72754455
165	0x3ed5cc5f	0.41757485
166	0xbe19ec77	-0.1503161
167	0xbf34f54b	-0.7068679
168	0x3e96f16e	0.2948107
169	0xbd5a67ea	-0.053321756
170	0xbea0a8f3	-0.31378898
171	0xbf361eea	-0.7114092
172	0xbea1708c	-0.3153118
173	0x3e9f650d	0.31131783
174	0xbf1dea1e	-0.6168536
175	0xbe3eae84	-0.1862126
176	0x3ed4f714	0.41594756
177	0x3e1d77cb	0.15377729
178	0x3ed7f75e	0.42180914
179	0x3efa3ebf	0.48875996
180	0xbe8eb0ae	-0.2786917
181	0xbeec8b70	-0.46200132
182	0xbf1cc43c	-0.6123693
183	0xbe479882	-0.19491771
184	0xbe2bb071	-0.16766526
185	0xbebc625d	-0.36793795
186	0x3b8ae871	0.004239135
187	0x3e0b50d7	0.13605057
188	0xbdd1d017	-0.10244768
189	0x3e6b55de	0.22981974
190	0x3ec07bf8	0.3759458
191	0xbe9f064f	-0.310595
192	0x3e2ac24f	0.16675685
193	0x3d2e78c3	0.042595636
194	0xbf040b07	-0.51579326
195	0x3e3b82f3	0.18311672
196	0xbd0236f9	-0.031790707
197	0xbefad123	-0.48987684
198	0xbe784071	-0.24243332
199	0xbe21a49f	-0.15785454
200	0x3d40c0a8	0.04705873
201	0xbbff5c6f	-0.0077930014
202	0xbe35657c	-0.17714494
203	0x3e4ca331	0.19984128
204	0xbd7cdf7e	-0.061736576
205	0xbd8faa5b	-0.070149146
206	0x3dd82bc4	0.10555223
207	0x3d41f7d7	0.0473555
208	0x3cf5e360	0.030015647
209	0x3d180245	0.03711154
210	0x3e5a3860	0.21310568
211	0x3df35664	0.11881712
212	0x3d5ce746	0.053931497
213	0x3ded95d5	0.11600844
214	0x3e127d38	0.1430558
215	0x3e0efd9e	0.13963935
216	0x3e8f8311	0.28029683
217	0x3e9fbe69	0.3119996
218	0xbda32119	-0.07965297
219	0x3e53b548	0.20674622
220	0xbd93d515	-0.072183765
221	0xbeae606c	-0.3405794
222	0x3e1b0978	0.15140331
223	0x3e7e2521	0.24818851
224	0xbd872e65	-0.06600646
225	0x3f17b5aa	0.5926157
226	0xbe82e8eb	-0.25568327
227	0xbd50707f	-0.050888535
228	0x3d8d67d2	0.06904568
229	0xbe38792a	-0.1801497
230	0x3f0da34c	0.55327296
231	0xbe08eadf	-0.13370846
232	0x3e01f821	0.1269231
233	0x3f185745	0.5950816
234	0xbe088337	-0.13331304
235	0xbdefee38	-0.117153585
236	0xbec6a3e1	-0.38796905
237	0xbe01733f	-0.12641619
238	0xbe198b4a	-0.14994541
239	0xbed5c767	-0.41753694
240	0xbe18790b	-0.14889924
241	0xbe16e357	-0.14735161
242	0xbea54831	-0.3228164
243	0xbe197228	-0.14984953
244	0xbe3c1a92	-0.18369511
245	0xbe9f335c	-0.31093872
246	0xbd051af1	-0.032496396
247	0xbd18f0f5	-0.03733917
248	0xbe311368	-0.17292559
249	0x3e38011c	0.17969173
250	0xbd98856e	-0.07447325
251	0xbe8986ff	-0.26860806
252	0xbd940610	-0.07227719
253	0xbd8807c3	-0.066421054
254	0xbd9f92a4	-0.07791641
255	0xbcc3093e	-0.023808118

weight f4 [9]
0	0xbc915719	-0.017741727
1	0x3fae9ca3	1.3641552
2	0xbfa33d4b	-1.275308
3	0x3eefdf12	0.46849877
4	0x3fe616d9	1.7975723
5	0x3f8610a1	1.0473825
6	0x3d1d2838	0.038368434
7	0xbf7837d3	-0.9696018
8	0xbe78cdf8	-0.24297321

bias f4 [9]
0	0xbf535cb9	-0.8256336
1	0x3ebe7306	0.3719713
2	0x3fa30b26	1.2737777
3	0x3ef75234	0.48304904
4	0x3f261757	0.64879364
5	0xbfdf9e2c	-1.7470145
6	0xbf3382f1	-0.70121676
7	0x3f0ab9b0	0.54189587
8	0x3f33c955	0.70229083

running_mean f4 [9]
0	0x40178d44	2.3679972
1	0xc0444cad	-3.06718
2	0x3db5b3d6	0.088721916
3	0xc01ed6c7	-2.481859
4	0xbf89f07c	-1.0776515
5	0xc06d4c1d	-3.7077706
6	0xc009b9cc	-2.1519651
7	0x3f2e8469	0.6817079
8	0x408149e3	4.0402694

running_var f4 [9]
0	0x3f1898d8	0.5960822
1	0x4192436b	18.282919
2	0x414fb8b9	12.982598
3	0x40cf8853	6.485391
4	0x410ea92b	8.916301
5	0x40b09781	5.518494
6	0x3feca5d4	1.8488107
7	0x411a38e9	9.638894
8	0x411d42a4	9.82877

weight f4 [6, 9, 3, 3]
0	0x3d98225c	0.074284285
1	0x3e0810a6	0.13287601
2	0x3da29464	0.079384595
3	0x3e64d1c1	0.2234564
4	0x3e874ccd	0.26425782
5	0x3e8db934	0.2768036
6	0xbd0a03b7	-0.03369495
7	0x3da61d5a	0.08111067
8	0x3cd3dbb8	0.025861606
9	0xbf21bd04	-0.6317904
10	0xbf24b49a	-0.64338076
11	0xbf3634c9	-0.71174294
12	0xbf665d15	-0.8998578
13	0xbf82d8ed	-1.022245
14	0xbf832577	-1.0245808
15	0xbf4743be	-0.7783774
16	0xbf53e7cb	-0.82775563
17	0xbf871811	-1.055422
18	0x3e68af36	0.22723088
19	0x3d85a9fd	0.06526563
20	0x3d9b894e	0.07594548
21	0xbe5b733e	-0.2143068
22	0xbe04e94a	-0.12979618
23	0xbe6c8ec0	-0.2310133
24	0xbef97daf	-0.487287
25	0xbe881f4f	-0.26586387
26	0xbebc0183	-0.36719903
27	0xbd86a339	-0.06574101
28	0x3d26bf23	0.040709626
29	0x3cc7194a	0.024304051
30	0x3d80cae4	0.06288698
31	0x3dc37a9f	0.095448725
32	0x3dd9d143	0.10635617
33	0x3e8bb37f	0.27285382
34	0x3e85809f	0.26074693
35	0x3eab67ff	0.3347778
36	0xbd18c36c	-0.037295744
37	0x3daa02a4	0.08301285
38	0xbdc8d420	-0.09806085
39	0xbf78c5f0	-0.9717703
40	0xbf20cff5	-0.6281732
41	0xbf2cfe55	-0.6757558
42	0xbf3105e7	-0.6914963
43	0xbeac9759	-0.3370922
44	0xbee05832	-0.43817288
45	0x3e26f1c0	0.16303158
46	0x3ebf4537	0.37357494
47	0x3e5a50ce	0.21319887
48	0x3e071a68	0.13193667
49	0x3e644e02	0.22295383
50	0x3c0a8fbb	0.00845712
51	0xbe08391b	-0.13303034
52	0xbd5e1a54	-0.054224327
53	0xbe2f9fd6	-0.17150816
54	0x3e40605c	0.18786758
55	0x3e46aa04	0.19400793
56	0x3e72ab62	0.2369819
57	0x3e41e625	0.1893545
58	0x3e4d8f45	0.20074184
59	0x3e4148a9	0.18875374
60	0x3ec20624	0.3789531
61	0x3ea7a07c	0.32739627
62	0x3ea6d4a9	0.32584122
63	0x3e8296c6	0.25505656
64	0x3e6dcfbb	0.23223774
65	0x3e586bec	0.21134919
66	0x3e982d36	0.29721993
67	0x3e8455e0	0.25846767
68	0x3e3508b9	0.17679109
69	0x3e948a18	0.29011607
70	0x3eccc7a0	0.39996052
71	0x3ed28602	0.41117865
72	0x3e46614e	0.19373056
73	0x3e4edd05	0.202015
74	0x3df34c97	0.11879843
75	0x3e85a916	0.26105565
76	0x3e9a1616	0.30094975
77	0x3e26160e	0.1621935
78	0xbe40a518	-0.18812978
79	0xbe48dec9	-0.19616236
80	0xbdd5d290	-0.10440552
81	0x3f007460	0.50177574
82	0x3ef68e6c	0.48155534
83	0x3ef03d39	0.4692171
84	0x3e019d91	0.12657763
85	0x3e045a5f	0.12925099
86	0x3e4a0a69	0.19730534
87	0x3c220b90	0.009890452
88	0x3d1c0554	0.03809102
89	0x3e04c120	0.12964296
90	0xbe9ab7a9	-0.30218247
91	0xbe9a5c6b	-0.30148634
92	0xbe4c6284	-0.19959456
93	0xbf035d33	-0.51314086
94	0xbe9b9dff	-0.3039398
95	0xbe5b3de5	-0.2141033
96	0xbf031e4f	-0.5121812
97	0xbe97846d	-0.2959322
98	0xbe8228e6	-0.25421828
99	0xbe642968	-0.2228142
100	0xbeb0100d	-0.34387246
101	0xbea67f5e	-0.32519048
102	0xbe81de46	-0.25364894
103	0xbeba0343	-0.36330613
104	0xbe755186	-0.2395688
105	0xbeb6079f	-0.3555269
106	0xbebc4a29	-0.3677533
107	0xbe339c9c	-0.1754021
108	0x3e05e761	0.13076545
109	0x3e16b406	0.14717111
110	0x3e1f9a19	0.15586127
111	0x3e44c4ed	0.19215746
112	0x3e91b846	0.28460902
113	0x3ec2d19e	0.3805055
114	0xbd68ef62	-0.05686892
115	0x3e2564c5	0.16151722
116	0x3e43bf0b	0.19115846
117	0x3e7e7055	0.24847539
118	0x3d140ee8	0.03614703
119	0xbead9cdd	-0.3390874
120	0x3e357528	0.17720473
121	0x3dac6b0d	0.08418856
122	0xbe8832e5	-0.2660133
123	0xbd2ce018	-0.0422059
124	0xbeac3f5c	-0.3364209
125	0xbea74689	-0.32671002
126	0xbea5a22c	-0.3235029
127	0xbeaf2c27	-0.34213373
128	0xbe73bad5	-0.2380174
129	0xbe359830	-0.17733836
130	0xbeb931cb	-0.36170802
131	0xbe1ca235	-0.15296252
132	0xbe6e41cf	-0.23267291
133	0xbebf5d06	-0.3737566
134	0xbe8b503b	-0.27209648
135	0x3ebd9cfd	0.37033835
136	0x3ede3231	0.43397668
137	0x3eeb907f	0.4600868
138	0x3ee4fca8	0.4472401
139	0x3efe8051	0.49707273
140	0x3f02d7fe	0.5111083
141	0x3ed038f0	0.4066844
142	0x3ebc1ea3	0.36742124
143	0x3eb91385	0.36147705
144	0x3ebc0698	0.3672378
145	0x3f068ed9	0.5256172
146	0x3f160b69	0.5861116
147	0x3f00e740	0.5035286
148	0x3f30f5de	0.69125164
149	0x3f140bc4	0.5783045
150	0x3d86ca4c	0.06581554
151	0x3e4de9d6	0.20108733
152	0x3e1b13de	0.15144297
153	0xbe128129	-0.14307083
154	0xbdf71110	-0.12063801
155	0xbdbef7ff	-0.09324645
156	0x3d6ebd2c	0.058285877
157	0x3c28cdf5	0.01030301
158	0x3dcd46a7	0.100232415
159	0xbd937453	-0.071999215
160	0x3d1f2b91	0.038859908
161	0x3e927bdd	0.28610125
162	0x3d8089c2	0.06276275
163	0xbc65efe3	-0.014034244
164	0x3d026441	0.03183389
165	0x3d83d3e1	0.06436897
166	0x3ca80dff	0.020514486
167	0x3d172d94	0.0369087
168	0x3c8b68f1	0.017017813
169	0x3d910700	0.07081413
170	0x3d49449f	0.049137708
171	0x3e8a6bab	0.2703527
172	0x3eb6c205	0.356949
173	0x3e9100ae	0.2832083
174	0x3ca01c0a	0.01954462
175	0x3ebddf50	0.37084436
176	0x3e937d4b	0.28806528
177	0xbe284c45	-0.16435345
178	0x3d9b8d5b	0.07595321
179	0x3df1a2df	0.11798643
180	0xbe858eec	-0.26085603
181	0x3c032d84	0.008006457
182	0xbe72e5ef	-0.23720525
183	0xbedf7ce3	-0.43649969
184	0xbe518c5e	-0.20463702
185	0xbea4611e	-0.32105345
186	0xbe5943a4	-0.21217209
187	0xbed1b833	-0.40960845
188	0xbeefd478	-0.46841788
189	0xbd60236e	-0.05472129
190	0xbe598f31	-0.2124603
191	0xbd9f6069	-0.07782061
192	0x3dae57d4	0.08512846
193	0xbd46582d	-0.048423935
194	0xbdded64b	-0.10880717
195	0xbd433161	-0.047654513
196	0x3dffbd8e	0.124873266
197	0x3c9c151b	0.019053033
198	0xbea20ef5	-0.31652036
199	0xbededb39	-0.4352663
200	0xbe812985	-0.2522699
201	0x3ec1e722	0.37871653
202	0xbe425f4c	-0.18981665
203	0xbe754692	-0.23952702
204	0x3ed7ffb4	0.42187274
205	0x3e0afe9e	0.13573691
206	0xbd8105ca	-0.06299932
207	0x3df5cd4a	0.120020464
208	0xbd1e65a0	-0.038671136
209	0x3d8afaca	0.067861155
210	0x3c2e2fe7	0.010631538
211	0x3a6b3360	0.0008972194
212	0xbdb630c3	-0.08896019
213	0x3d812088	0.06305033
214	0x3e8af12d	0.27137128
215	0x3e2ace01	0.16680147
216	0x3d9d4035	0.07678262
217	0x3cd70657	0.02624814
218	0x3dc4e682	0.096142784
219	0x3e13a2ea	0.14417616
220	0x3dd9f552	0.10642494
221	0x3daaf879	0.08348174
222	0x3db283b6	0.08716528
223	0x3d8e6365	0.06952552
224	0x3df11c0d	0.117729284
225	0xbeb1744c	-0.3465904
226	0xbe07a9ed	-0.13248415
227	0xbe9ab2ff	-0.30214688
228	0xbed31a2f	-0.41230914
229	0xbd3a142f	-0.045429405
230	0xbd5dd6af	-0.054159816
231	0xbeac03d3	-0.33596668
232	0xbe2b2156	-0.16711935
233	0xbd9c8125	-0.0764182
234	0xbe9e2ab1	-0.30891946
235	0x3da26bfc	0.07930753
236	0x3ebc245f	0.367465
237	0xbe96efd5	-0.29479852
238	0x3d900716	0.070326015
239	0x3ee7f5b7	0.45304653
240	0xbecb756e	-0.3973803
241	0xbde0b8ed	-0.10972772
242	0x3e095306	0.13410577
243	0x3d7b6288	0.061373264
244	0x3dba7d00	0.09105873
245	0x3da8616a	0.08221705
246	0xbd98f561	-0.07468677
247	0xbe8c0ae0	-0.27352047
248	0xbea031fd	-0.31288138
249	0xbe3a8eaa	-0.18218485
250	0xbe35d269	-0.17756046
251	0xbe19d49e	-0.15022513
252	0x3c6ad598	0.014333151
253	0xbe15d107	-0.14630519
254	0xbe068893	-0.13138036
255	0xbd4963a1	-0.04916728

weight f4 [6]
0	0x3febbd4b	1.8417143
1	0x3f2b8def	0.6701345
2	0xbfda7ab3	-1.7068695
3	0xbfa61d06	-1.2977607
4	0x3f2f7266	0.68533933
5	0x3f5ca327	0.8618645

bias f4 [6]
0	0xbd431493	-0.047627043
1	0x3f18143e	0.5940589
2	0xbf8a39e9	-1.0798923
3	0xbf4a31c6	-0.789822
4	0x3ef177b3	0.47161636
5	0xbf5a7f60	-0.8535061

running_mean f4 [6]
0	0xc20b6c7e	-34.85595
1	0xc17efd42	-15.9368305
2	0xc13729e4	-11.447727
3	0xc0aee0f8	-5.464962
4	0xc1a75cfc	-20.920403
5	0x4245054e	49.25518

running_var f4 [6]
0	0x438e0cbc	284.0995
1	0x42f15132	120.658585
2	0x4208f99d	34.243763
3	0x42479b81	49.90186
4	0x429600ce	75.00157
5	0x443c1212	752.28235

weight f4 [9, 6, 3, 3]
0	0xbea2faf3	-0.31832084
1	0xbc96299a	-0.018330384
2	0x3e1aa112	0.15100506
3	0xbce93de1	-0.028471889
4	0x3e70b9eb	0.23508422
5	0x3e350e01	0.17681123
6	0xbb2b4128	-0.0026131365
7	0x3eec642e	0.4617018
8	0x3de032a1	0.10947157
9	0x3e3e221f	0.18567704
10	0x3e79b3ce	0.24384996
11	0x3ea26006	0.31713885
12	0x3e67a931	0.22623135
13	0x3eb815f0	0.35954237
14	0x3e913aaa	0.2836507
15	0x3ea79caa	0.32736713
16	0x3ee41aee	0.44551796
17	0x3e9060da	0.28198892
18	0xbf116f6e	-0.56810653
19	0xbe89e4cc	-0.2693237
20	0x3dc4c9e8	0.09608823
21	0xbf0af750	-0.5428362
22	0xbebd6e90	-0.36998415
23	0xbd89a3ac	-0.06720671
24	0xbf0047dc	-0.5010965
25	0xbec27870	-0.37982512
26	0xbeb8737e	-0.36025614
27	0xbe407d0e	-0.18797705
28	0x3dcf4c52	0.10121979
29	0x3e89021c	0.26759422
30	0xbdf8488d	-0.12123213
31	0xbcbb45f1	-0.0228605
32	0x3e93a641	0.2883778
33	0xbeba9987	-0.36445257
34	0xbe96a2bd	-0.29421034
35	0xbcfd6123	-0.030930107
36	0xbdd7bfdb	-0.105346404
37	0xbcbbb22e	-0.022912111
38	0x3e4660da	0.19372883
39	0xbc3491e1	-0.011021108
40	0x3ea35dae	0.3190741
41	0x3e81349c	0.2523545
42	0x3df71980	0.120654106
43	0x3ef2e0ca	0.47437125
44	0x3eed8cfd	0.46396628
45	0x3e0a444f	0.1350262
46	0x3e94c171	0.29053834
47	0x3e7adba6	0.24497852
48	0xbc8856bd	-0.016642923
49	0xbd0a0403	-0.033695232
50	0xbdbff51b	-0.09372922
51	0xbd34f35c	-0.044177398
52	0x3d180113	0.0371104
53	0xbcc36c4a	-0.023855347
54	0x3d90ddc4	0.070735484
55	0xbe14c0b3	-0.14526634
56	0xbe1e2d4a	-0.15446964
57	0x3abb6ae6	0.0014298826
58	0xbea65e6d	-0.32493916
59	0xbe8f9b44	-0.28048146
60	0xbdbf80a1	-0.09350706
61	0xbebe0b58	-0.3711803
62	0xbe9d7d27	-0.30759546
63	0x3d8afc05	0.0678635
64	0xbe251b58	-0.16123712
65	0xbec3b342	-0.382227
66	0xbde9dd7c	-0.11419198
67	0xbecbef2c	-0.3983091
68	0xbec8356d	-0.3910326
69	0xbde5a153	-0.11212411
70	0xbea63609	-0.324631
71	0xbeab5f7e	-0.33471292
72	0x3e259f1b	0.16173975
73	0xbebf179d	-0.37322703
74	0x3d9b77ef	0.07591235
75	0xbd0d7cc5	-0.034542818
76	0xbef7de08	-0.48411584
77	0xbe2716d6	-0.16317305
78	0x3db6b279	0.0892076
79	0xbe150e0c	-0.1455614
80	0xbded2588	-0.11579424
81	0x3e3ac117	0.1823772
82	0x3d938cc4	0.07204583
83	0x3db4f735	0.088362135
84	0x3e7387c6	0.23782262
85	0xbdd38614	-0.10328308
86	0x3db529b7	0.08845847
87	0xbb893f37	-0.004188444
88	0x3d94b925	0.07261876
89	0xbe370e40	-0.1787653
90	0x3e480903	0.19534688
91	0x3d198b18	0.037486166
92	0x3d102dd7	0.035199966
93	0xbdedbc31	-0.1160816
94	0x3d77dafe	0.06051158
95	0xbe483734	-0.19552308
96	0xbe89bdd6	-0.26902646
97	0xbe15d929	-0.14633621
98	0xbd957e05	-0.07299427
99	0x3dd28593	0.102793835
100	0xbe2bd67d	-0.1678104
101	0xbdd364ef	-0.10321986
102	0x3c951aeb	0.018201312
103	0xbe8aed87	-0.27134344
104	0xbd86a260	-0.06573939
105	0x3e6d2160	0.23157263
106	0xbcec4ed1	-0.028846176
107	0x3e61344e	0.21992609
108	0xbeab9388	-0.33510995
109	0xbdc9a0d1	-0.098451264
110	0x3e20d39a	0.1570572
111	0x3e25dd95	0.16197808
112	0xbc9aa5ae	-0.01887783
113	0x3de3356a	0.11094172
114	0x3f345d8a	0.7045523
115	0x3ec0b8a9	0.37640885
116	0x3eee2389	0.46511486
117	0xbf06c651	-0.52646357
118	0xbe7a82e9	-0.24464001
119	0xbe4ed232	-0.2019737
120	0xbea2ca0e	-0.3179478
121	0xbdc19c23	-0.09453609
122	0xbe8355a2	-0.2565127
123	0xbe53cddb	-0.20683996
124	0xbdf35459	-0.118813224
125	0xbeaba83c	-0.3352679
126	0xbeb516d5	-0.35368982
127	0xbe0d085d	-0.13772722
128	0x3e3c08d1	0.18362738
129	0x3e4c931c	0.19977993
130	0x3dcb9325	0.09940175
131	0x3f034b87	0.5128712
132	0x3f20c300	0.62797546
133	0x3ec32225	0.38111988
134	0x3ec6b345	0.38808647
135	0xbd6054e0	-0.054768443
136	0x3d639d66	0.05557003
137	0x3df78b15	0.12087075
138	0x3dbde2e0	0.092717886
139	0x3e685a86	0.22690782
140	0xbe21d140	-0.15802479
141	0x3ed7325e	0.42030615
142	0x3ddf3600	0.108989716
143	0x3d9738b5	0.07383863
144	0xbe8cee08	-0.27525353
145	0xbead44a0	-0.3384142
146	0xbe16c5c4	-0.14723879
147	0x3d9cdfa9	0.07659847
148	0xbd470887	-0.048592117
149	0x3de95a5e	0.11394189
150	0xbd5ddbbb	-0.05416463
151	0x3d5df6b8	0.054190367
152	0xbe4ba652	-0.19887665
153	0x3c1f14b0	0.009709522
154	0xbdf6544d	-0.12027798
155	0xbe67dfee	-0.22644016
156	0x3b5312a7	0.0032207163
157	0xbca91265	-0.020638654
158	0xbe2b2744	-0.16714197
159	0xbe089602	-0.13338473
160	0xbdd96b68	-0.10616189
161	0xbe83feed	-0.2578043
162	0xbdd0be0b	-0.10192498
163	0xbd7dae4b	-0.061933797
164	0xbdc11ff8	-0.09429926
165	0x3e86729f	0.26259324
166	0x3e783dd6	0.24242339
167	0x3e3cd935	0.18442233
168	0x3ea019e5	0.31269756
169	0x3e9b42e3	0.30324468
170	0x3e7f24ec	0.24916428
171	0xbeb5fb71	-0.35543397
172	0xbe3baaee	-0.18326923
173	0xbe56f781	-0.20992853
174	0xbe567726	-0.20943889
175	0xbe1ac6bc	-0.15114874
176	0xbd7ff80b	-0.06249241
177	0xbe1329f5	-0.14371474
178	0xbd83aed7	-0.064298324
179	0x3e05034b	0.12989537
180	0xbd7d421a	-0.061830617
181	0x3cf179e7	0.029477073
182	0x3d9e2d69	0.07723505
183	0x3daec05a	0.08532782
184	0x3e23ed86	0.16008577
185	0x3e2c5978	0.16831005
186	0x3c7b84ed	0.015351516
187	0x3e256d2d	0.16154929
188	0x3e31b038	0.17352378
189	0xbd8a6a2c	-0.06758532
190	0xbdc9d129	-0.09854347
191	0xbc8af1cc	-0.016961
192	0xbc9d212b	-0.019180855
193	0x3d4067fd	0.04697417
194	0xbd1a279f	-0.037635442
195	0xbdaff94c	-0.085924715
196	0xbc8c9b97	-0.017164035
197	0x3e4dd026	0.20098934
198	0x3e259401	0.1616974
199	0x3d90ae3f	0.07064485
200	0xbd7941d2	-0.060853787
201	0x3e762987	0.24039279
202	0x3ecd2d34	0.4007355
203	0x3c2be3ed	0.010491353
204	0x3e5311de	0.20612285
205	0x3e649f72	0.22326449
206	0x3e7b561f	0.24544571
207	0xbeab794d	-0.33490983
208	0xbea4f020	-0.3221445
209	0xbebceb40	-0.36898232
210	0xbebcf0ec	-0.3690256
211	0xbeed41cc	-0.46339262
212	0xbeec71cc	-0.4618057
213	0xbd09a1ac	-0.033601448
214	0xbe3b3abb	-0.18284123
215	0xbe3fa389	-0.18714727
216	0x3e09153c	0.13387007
217	0x3d93302a	0.07186921
218	0x3e1e05ad	0.15431853
219	0x3ef9a714	0.48760283
220	0x3ed4efb8	0.4158914
221	0x3ec64c11	0.3872991
222	0x3e8ae5f9	0.2712858
223	0x3e622d5e	0.22087619
224	0x3e01c022	0.12670949
225	0x3ecd9de0	0.40159512
226	0x3f24aef1	0.6432944
227	0x3eb8dd6a	0.36106426
228	0x3eda91e2	0.42689425
229	0x3f36813e	0.7129096
230	0x3f0dae78	0.55344343
231	0x3ee43a96	0.44575948
232	0x3f4c96bb	0.79917496
233	0x3f14da13	0.58145255
234	0x3e2e1d01	0.17003252
235	0xbcb51eac	-0.022109352
236	0x3e6cc565	0.23122175
237	0x3da82f49	0.08212144
238	0xbdfaf6f1	-0.122541316
239	0x3de0d9d8	0.109790504
240	0xbe82fd63	-0.25583944
241	0xbea652c6	-0.32485026
242	0xbe21c612	-0.15798214
243	0xbd70033f	-0.058596846
244	0xbded806c	-0.1159676
245	0x3dc4ee4e	0.096157655
246	0xbdc3736f	-0.095435016
247	0xbe127f2c	-0.14306325
248	0x3e5a48df	0.2131686
249	0xbe8021b2	-0.25025707
250	0xbe67bc4d	-0.22630425
251	0xbdc61f46	-0.09673934
252	0x3dad5658	0.084637344
253	0x3dbbc704	0.091688186
254	0xbe6f9741	-0.23397543
255	0x3e0fa158	0.14026392
